PPO/model/best_model_BipedalWalker-v3.pth (torch, 296597 bytes, 7 tensors)

log_std f4 [1, 4]
00000000: 74f2 c0bf 2e42 dabf 29f8 b5bf 0e9e 9abf
-1.5073991 -1.7051446 -1.4216357 -1.2079484

actor.0.weight f4 [256, 24]
00000000: abc3 633e 7006 8c3e 0cda 30be c4de c8be
00000010: e421 0d3e f1e3 a53d 2b83 2dbe 8a62 d93d
00000020: 47a5 153e 0822 c1bc 840b e2bd 9e8b 33bc
00000030: 2f66 6bbe a329 1c3e 195e a6bd 220e 923b
00000040: 3000 e53c 2f87 003d 6fa0 e4bd 0ea5 56be
00000050: 8d74 76bd f17c 85bd 3bec b33c e8ac 8f3c
00000060: 94f2 643c acf3 133e 7ce3 28be b2c0 b1be
00000070: 7089 933c 78c2 f83d 743b a9bd b2e5 853d
00000080: 0fc0 f23c dcd8 0b3d 2094 14be caf2 43be
00000090: e4da 94be d93a 933d 9557 9a3d 7ecb ffbc
000000a0: 5098 81bd f37f a0bd 06d9 b33c 1344 21be
000000b0: cf0c cd3d 35ea 2dbd a256 cebd 9260 8abc
000000c0: bc60 aabc 504b 953e 9bbd 1cbd 6ddf c63e
000000d0: f12e 8b3e 19dd efbd 81ac 60be eec8 95bd
000000e0: 9f61 63bd f484 9ebd b2d3 c5bd 4784 493e
000000f0: bf95 8f3a 50ef 883d 221a 92bd 46da 93bd
00000100: fbf1 883d 7cd8 0d3e 2ae3 3a3d dc4f 3fbc
00000110: 93d5 7b3d 209d 093c 9e41 13be dd63 de3d
00000120: bb45 373e db36 0abd 78c7 9fbd e7b2 42be
00000130: fb5d b5bd 5488 523d efed 90be 297c 0d3e
00000140: fec7 8abb 63a7 813e df08 293e 711d 1b3d
00000150: ce3f 633d a382 d03d d3aa 94bc 49f6 e93d
00000160: b6f0 51bd 2977 90bd 25d6 39bd 92ab 643d
00000170: 6d96 643c a874 a1bd 5fe6 ab3d 2482 843c
00000180: f16a e53d e81e 60be 04bb 603e 76c6 df3e
00000190: ec2a 8cbe 4160 1cbe 992c 8e3e e6a0 693e
000001a0: 2e00 463d d57d c6bd 3e80 bf3d 1098 0bbc
000001b0: 0b0e 173e a61c 19bd 22d4 c9bd 4864 243d
000001c0: f549 72bd 015b 303d ff2c 043e 5a25 cdbd
000001d0: 60fd ffbc 1b50 10bc 09f2 8abd ff41 2fbe
000001e0: 858d 2d3e 5c69 903e 10f6 2cbe aef0 39be
000001f0: 5b2a b13d e3fc 4cbe f3df 20be 4157 813d
00000200: 43ba 0b3e d248 8b3d 7599 45bd 47be 1a3d
00000210: f18f 513d 2730 943c 6810 a3bd 7737 e23c
00000220: 26a3 1cbe 6d6c 2ebd ac2f c63d eb35 36bd
00000230: f8e1 dbbd f854 d4bd bdbf 42bc 3c87 323e
00000240: 3b4e 233e 8b0e d63e 10df 6fbd d854 e4be
00000250: d50f c9bd 59b1 a73c d998 21be 2dd5 b83d
00000260: bd4f 50bd 0e25 1d3e 9b37 ce3c 796c 42bd
00000270: 6efa f13c 7fb8 033d e2e4 94bd be36 c93d
00000280: 96b1 a5bd f9d4 e6bd 6953 26be 2f14 ac3b
00000290: ec43 6fbd 4631 5a3d 1d02 28bd 07f9 873e
000002a0: 7939 353d 5fa1 473b 2a75 073e 4fc0 1bbe
000002b0: 493e 9b3e 40f6 0fbe 6712 5cbe e421 f73c
000002c0: 1b07 92bd 4180 7ebe 2206 a5bc ac9c c1bd
000002d0: cc16 92bc 0ba4 163e e86d dd3d b170 9dba
000002e0: 9be5 1abe 4804 4c3d d3cb e03c 9d34 063e
000002f0: 2c22 bf3c 4939 813d d6ca 3abc e1e9 08bd
00000300: 01c2 7f3e 20db 0a3e 978f 13be dee6 1d3d
00000310: aa5f 02be 2cb6 583e de3c 8b3c 392f 02be
00000320: 3d6b b6bd d8c7 013e 20a9 353e b68e 6a3e
00000330: 1d3e 413d 0b1c 8abc b4ee fd3d b172 9b3c
00000340: 3356 cdbc 60c4 d13d ceb2 4b3d ca29 c0bd
00000350: 3454 663d 3511 83bd 7674 1e3e f7cd 07be
00000360: 56e4 52be ac9f 40be 038b 4dbd c460 46be
00000370: bccf 8e3d c732 5cbe c760 3c3d 4edc eabd
00000380: 5833 863c a0fd 86be deca 15be 3be4 2b3d
00000390: 5bda 723d c850 6bbe 31f3 be3d 3229 d6bd
000003a0: 0da0 71bd 808f 25bd 35e7 6e3c e4c8 b63b
000003b0: 052c 21bd fbc8 703d 9a54 cebd e007 5bbb
000003c0: 36d6 f13d 3bec 4a3e 9f2c 14be eb90 a9be
000003d0: 7291 c43a 5cde 77bd 2e8d 4ebe 05c8 693d
000003e0: 1c06 c13d bee3 013e ae98 153d 6f66 21be
000003f0: 3ba4 d3bc 6804 753d f1bf 2fbd 03c9 b63d
0.2224261 0.2734866 -0.17270678 -0.39232457 0.1378246 0.08100117 -0.16944568 0.10614498
0.1461383 -0.023575798 -0.11037353 -0.01095858 -0.22988199 0.15250258 -0.081234165 0.004457251
0.027954191 0.03137892 -0.11163413 -0.20961401 -0.060169745 -0.06517971 0.02196323 0.017538503
0.013973851 0.14448422 -0.16493028 -0.34717327 0.018009871 0.12146467 -0.08263293 0.065379515
0.029632596 0.03414236 -0.1450963 -0.19135585 -0.2907325 0.07188959 0.07536236 -0.031224962
-0.063278794 -0.078369044 0.02195407 -0.15748625 0.10012209 -0.042459685 -0.10075118 -0.016891751
-0.02079808 0.2915902 -0.03826676 0.38842335 0.2718425 -0.11712093 -0.21940805 -0.07313715
-0.05551302 -0.077402025 -0.09659518 0.19679366 0.0010954662 0.0668627 -0.07133891 -0.07219367
0.06686779 0.13852113 0.045626797 -0.011676755 0.061482977 0.008399278 -0.143805 0.10858891
0.17897694 -0.03374372 -0.078017175 -0.19013558 -0.08855816 0.051399544 -0.2830653 0.13816895
-0.0042352667 0.25323018 0.1650729 0.037869874 0.05548077 0.10181167 -0.018147862 0.11423928
-0.05125495 -0.07053978 -0.04537024 0.055827685 0.01395188 -0.078835785 0.08393549 0.016175337
0.11202038 -0.2188679 0.21946341 0.437061 -0.27376497 -0.15271093 0.277684 0.22815284
0.048340015 -0.09691969 0.09350632 -0.008520141 0.1475145 -0.037380837 -0.09854914 0.0401347
-0.059152562 0.043055538 0.1290779 -0.1001689 -0.031248748 -0.008808161 -0.06784446 -0.1711502
0.16948517 0.28205383 -0.1689074 -0.18158218 0.08650657 -0.20018344 -0.1571043 0.063154705
0.13645272 0.06800999 -0.04824205 0.03777912 0.051162664 0.018089367 -0.079621136 0.027614338
-0.15296611 -0.04258387 0.096770614 -0.044485014 -0.107364595 -0.10367769 -0.011886534 0.174344
0.15947811 0.4180797 -0.05856234 -0.4459598 -0.09817473 0.020470308 -0.15780963 0.09025035
-0.050857294 0.15346166 0.025173 -0.04746673 0.02953836 0.03215837 -0.072702184 0.09824894
-0.080905125 -0.1127109 -0.16242756 0.0052514295 -0.058414385 0.053269647 -0.04101764 0.2655718
0.044244263 0.0030461175 0.13228288 -0.15210079 0.30320957 -0.1405878 -0.21491395 0.030167527
-0.071302615 -0.24853612 -0.020144526 -0.09453711 -0.017833136 0.14711015 0.108119786 -0.0012011734
-0.1512665 0.04980877 0.027440941 0.13106008 0.023331724 0.063097544 -0.011400899 -0.03342617
0.2497635 0.13560152 -0.14410244 0.03855025 -0.12731805 0.21163243 0.016996797 -0.12713327
-0.08907173 0.1267389 0.17740297 0.22906002 0.047178376 -0.016859075 0.12399045 0.018975588
-0.025065517 0.10242534 0.04973107 -0.09382971 0.056232646 -0.06399766 0.15474114 -0.13262163
-0.20594916 -0.1881091 -0.0501814 -0.1937285 0.06973216 -0.21503745 0.04599073 -0.11467801
0.016381904 -0.26365376 -0.14628169 0.041965704 0.05929027 -0.22980034 0.09323729 -0.10457076
-0.058990527 -0.040420055 0.014581491 0.0055781472 -0.03934862 0.05878542 -0.1007473 -0.0033421442
0.118084356 0.19816677 -0.14470147 -0.33118376 0.0014996959 -0.060514793 -0.20171043 0.05707552
0.094249934 0.12684533 0.03652256 -0.15761732 -0.025835147 0.059818655 -0.04290766 0.08925059

actor.0.bias f4 [256]
00000000: d8f9 bfbc 195d 14bd a511 d43c 8838 423d
00000010: 13f5 00bd 4e25 883c c62e c03c 2007 1c3d
00000020: d163 663c c788 3d3d 6a61 c13c bf47 ff3c
00000030: fa18 ac3c 4f1d e3bc a071 be3d 670a 773d
00000040: 511f a33c 42ba f13c 536a 8bbb 99b8 193d
00000050: 174b 9c3c f43d babc ff9b f6bb 0fc6 88bc
00000060: 61e6 5a3c 7e7f 593d 6bca 353d fc08 ae3c
00000070: 46e6 ff3b 5e8b 033a 85bc 863c e2b5 e33b
00000080: d34e eb3c af2b 4a3c fc55 7f3c bca3 9e3c
00000090: b639 533d 0d49 403c d2c4 ddba a210 bfba
000000a0: 6ac2 ddbc 5a01 27bc 2d95 b03b b7d4 d0b8
000000b0: 1ca7 853c 727d 273d 9a2d 3fbc 4470 243d
000000c0: c979 b8bc 7f93 2fbd fee8 803c c112 183d
000000d0: 5dac 16bd 8925 1a3d 1070 84bc 4ef5 773a
000000e0: 84df 8dbc 82e9 e13c 8e0d ec3b 1200 253c
000000f0: a554 213d b19f 72bd 113e 8f3b e786 803c
00000100: 4ddb 533c a5d7 7fbd bdac 143d 7712 1bbd
00000110: 01a5 973c 6dcb b53b 3f04 263b 93f9 583c
00000120: a929 143d 0091 90bd 451d 03bb 935d e33a
00000130: d7c7 e53c 1a8b 9e3c ee3f 273d a71d 563d
00000140: dbd3 d13b d7b3 98bc a12a 4bbc 1352 303d
00000150: fe70 513a 430b 51bb c978 f43a 630c 2cbd
00000160: 52d3 b23c fddf 133d f0bb 653c c1a7 443c
00000170: e2d0 a13c a5b4 2e3a 9641 2d3d be30 333c
00000180: 656b 06bd a571 7f3d 1fdf fbbb b58c ddba
00000190: 9c36 aa3c c3f2 2abc 9036 3f3c 44d1 3bbc
000001a0: 2382 a13a 0d8e 163d 9df5 623c d040 b2bc
000001b0: f365 353d 86aa 70bc 922e 173c d5d4 c93c
000001c0: dc60 2e3d aa0b b7bc 9e16 c8bc ebfc 9a3c
000001d0: 5662 7ebc 7dcc 4cbd ff7e 363d 6f3d de3c
000001e0: 8516 87bc 6cd3 9bbc e04f aa3c 8fa5 7e3c
000001f0: a095 4d3c ad76 d23c 7c74 753c bc6c 06bd
00000200: bc8b 0f3d b791 59bc adfd 2c3d 36f3 d33c
00000210: 858a 573d 0c65 2f3c 638f c1bb 60b5 0a3c
00000220: 77f3 d9bb eb35 1d3c fade 1d3d dbcc 023c
00000230: 1a9a 8bbc 8ecd 0abc d3f4 73bc d332 4dbb
00000240: 3065 01bc 887a d1bc 56d4 f3bc 9b59 f0bc
00000250: 15e0 78bc 43c3 0ebd 987e 703c 56a4 18bd
00000260: 3ec2 8cbd 9083 99bc 0fe9 abbb 4c76 153d
00000270: 8748 20bd 9947 d2ba ff0d b73c 4a27 95ba
00000280: b0cf 50bc b632 0bbd e6a1 d23c 2aac 51bc
00000290: b376 093d cea1 9f3a f6c8 1d3c 7311 513c
000002a0: 3c0f 253b 4c3b 1abc 3c32 ffba 7d88 943d
000002b0: ab49 293c 98ff 653d 6297 2e3d bb07 c6bb
000002c0: 8b86 a4bc 96a9 1f3d 66b0 a43c 7047 b63a
000002d0: bc43 ec3c 5c80 a8bb 8f6a 38bc 3713 b4bb
000002e0: 2289 1d3d b7e8 153d d160 883c a1ce 8a3d
000002f0: a9a5 b43c 8bbc 323c 5c26 4c3d 7cc7 83bc
00000300: 6dd5 033c 7d47 9f3d 637d 04bd 1726 d6bc
00000310: fdbf 463d 05d9 3ebd 4348 0bbd f9d2 543d
00000320: 96bb c7bb 6068 f23c a176 5b3d 1f40 0c3d
00000330: 4865 35bc 8e93 dcbc d0e0 f93c 4abf 95bb
00000340: 728d 39bb 39c9 553c 000f 133c 0c7d e93c
00000350: cd4a 573c 72c0 31bc ec90 263d 380e 033d
00000360: b54b fdbb 55e3 d53c f765 a8ba 15ef 69bc
00000370: 7151 3a3c 28ee 903c 8569 2bbd d17b 4d3d
00000380: 1f63 aabd ac40 c73b 728f 633c f498 24bb
00000390: e51f 013d a5a0 ab3b e59a 20bc 5a2f 013b
000003a0: db7b 4b3c 56b0 a63b 6a7c 2a3d 23e9 22bd
000003b0: e8ca 6e3c c909 713b 60af a43a be82 1abc
000003c0: ef1b b1bb b8d9 56bd 45c0 54bd 29e3 f63c
000003d0: 67df 1b3d 6d42 d93b b70c 6bbc bed7 8bbc
000003e0: 4c35 c73c 76da 073d c867 133d 9b4e a6bc
000003f0: 117e a8bc 7bf8 373d fcf8 a7bc de61 5c3d
-0.023434564 -0.036221597 0.02588732 0.047417194 -0.03148372 0.01661935 0.023459803 0.038092732
0.014061884 0.04627302 0.023606021 0.03116214 0.021008004 -0.027723936 0.09299016 0.060312655
0.019912394 0.02950776 -0.004254618 0.03752956 0.019078774 -0.02273462 -0.0075259204 -0.016696004
0.013360591 0.0531001 0.044382494 0.021244518 0.007809433 0.0005018021 0.016447315 0.0069491724
0.02872411 0.012339517 0.015584465 0.019365184 0.05156871 0.011736167 -0.0016919619 -0.00145771
-0.027070243 -0.010193193 0.005388877 -9.957834e-05 0.016315036 0.04089112 -0.011668587 0.040146127
-0.02251901 -0.042865273 0.0157361 0.03712726 -0.036785472 0.037633453 -0.016166717 0.00094588555
-0.017318495 0.027577166 0.0072037643 0.010070818 0.039387364 -0.059234325 0.0043714126 0.015689326
0.012930703 -0.062461514 0.03629755 -0.037859406 0.018511297 0.005547932 0.002533212 0.013243097
0.036172543 -0.070589066 -0.002000646 0.0017346613 0.028049393 0.019353438 0.040832452 0.052274372
0.006403429 -0.018640442 -0.0124003 0.043047022 0.00079895544 -0.0031897582 0.001865172 -0.042004
0.021829281 0.036102284 0.014021859 0.012002886 0.019752923 0.00066644914 0.042298876 0.010936914
-0.032817263 0.06236424 -0.00768651 -0.0016902896 0.020777993 -0.0104338555 0.011670724 -0.011463467
0.0012322109 0.036756564 0.013852504 -0.02175942 0.04428668 -0.014689093 0.009227412 0.024637619
0.04257284 -0.022344429 -0.024424847 0.018919429 -0.015526375 -0.049999703 0.044554707 0.027128903
-0.01649023 -0.019021712 0.02079004 0.015542402 0.01254788 0.025691355 0.014981385 -0.03281854
0.03504537 -0.01327937 0.04223411 0.025872808 0.052622337 0.010705244 -0.0059069856 0.008466095
-0.0066513377 0.009595375 0.038542725 0.007983412 -0.017041255 -0.00847186 -0.014889914 -0.0031310811
-0.00789766 -0.025571123 -0.029764336 -0.029339602 -0.015190144 -0.034854185 0.01467862 -0.037266098
-0.06872986 -0.018739492 -0.0052462886 0.03648977 -0.039131667 -0.0016043066 0.022345541 -0.0011379507
-0.012744829 -0.03398391 0.025711965 -0.012797395 0.033560466 0.0012178959 0.009630432 0.012760508
0.0025186082 -0.009413552 -0.0019469927 0.072525956 0.010332505 0.056151956 0.04262484 -0.006043402
-0.020083686 0.03898009 0.020103645 0.0013906788 0.028840892 -0.0051422548 -0.011255874 -0.0054954547
0.03846086 0.036598887 0.016647728 0.067776926 0.02205165 0.01090921 0.04984127 -0.016086332
0.00804649 0.07777307 -0.03234614 -0.02614121 0.048522938 -0.046593685 -0.03400446 0.05195901
-0.00609536 0.029590786 0.05357993 0.03424084 -0.011071511 -0.026925828 0.030502707 -0.0045699226
-0.0028313068 0.0130484635 0.008975744 0.02850201 0.0131403925 -0.010849105 0.040665552 0.031995982
-0.0077299722 0.026109377 -0.0012847771 -0.014278193 0.011371956 0.017691687 -0.04184868 0.05016691
-0.08319687 0.0060807075 0.0138891805 -0.0025115581 0.031524558 0.005237656 -0.009802555 0.0019712062
0.012419666 0.005086939 0.041622557 -0.039773118 0.014574744 0.0036779514 0.0012564473 -0.009430585
-0.0054049413 -0.052453727 -0.051941175 0.030137615 0.03805485 0.006630233 -0.014346293 -0.017070647
0.024317406 0.033167325 0.035987645 -0.020301154 -0.020567926 0.044914704 -0.020504467 0.05380427

actor.2.weight f4 [256, 256]
00000000: 83f1 afbd a3f7 36be 4e42 593e c819 eb3c
00000010: 6bc7 efbc 9581 9a3d cd90 c4bc 6e41 ab3d
00000020: 3d37 47bd 0273 a23d 8947 713d 6f39 be3d
00000030: fc00 b13c 0fac 7dbe 584a babc 2447 78bd
00000040: 1174 813d eb50 15be d33f 3ebd 4adf af3d
00000050: 321c c6bc aa61 9abd 0844 82be 8c96 f2bd
00000060: a561 97be b759 753d 47e1 a23d e89b cebd
00000070: cacd b8bb a984 a13d 3657 64bd 7c3b cebd
00000080: 0860 cf3d ada0 313c b7a1 44bd 976f 00bd
00000090: 3355 c43d ef7e 553b c85d c43d e80f 62bd
000000a0: 7a82 e23c f769 613e fba5 dabd ff2d b33c
000000b0: aee5 68bd 2f56 a83c 2ed3 c43d f81a e33d
000000c0: 9722 3e3d 6b42 963d ef57 c83c ac56 f0bd
000000d0: 107f f83b f13f 2cbe 04ab af3d 009c a8bc
000000e0: 0592 123d 2034 403d 0b25 1dbe 72ac 9bbc
000000f0: a944 f83d 0a9d 4a3e 2f84 423d 44ad 273e
00000100: 51c6 883b bfce ffbc 09bc 653e bf5b 1a3d
00000110: 198c a1bd d20a d13d bae3 0a3e cdc4 403d
00000120: 0d38 f5bd 5301 953e 0fa7 f2bd 6e89 703d
00000130: 0676 183d 9363 a3bd 6c8f 9bbd 87ac 2cbe
00000140: 8ca3 053d 788b 983c d232 45be c3f9 bfbd
00000150: bff5 153e 36f2 e0bc 54a8 c3bd f837 903d
00000160: fe89 1dbe 516c a23d e383 a63d 511e 593d
00000170: 3545 babd fd8c 2c3c 36a4 ce3d 23df 3d3d
00000180: 8e34 e53d f028 a23d 34e4 033e 25d2 41bc
00000190: 307c d6bc 1953 683d 488f 1a3d f25c dbbd
000001a0: 0063 7ebb dd1a a33c 2b86 653e 2e37 0abe
000001b0: 1fa6 b7bc 898d fc3d 3fa2 7cbd 32b9 fb3c
000001c0: 582c c2bd f253 9ebc 132c f23d 635c a53d
000001d0: ce76 72bd eeed a23c b446 32bc 2842 303e
000001e0: e7f0 263d f585 5f3c 3e3f 6e3d db6d b7bd
000001f0: 5748 ef3d 3015 853e c733 27be c70a 8f3d
00000200: 2034 7dbc 0cb6 633e b912 323d 94af d03d
00000210: 3033 3e3d aa04 dabc 52c3 4a3d cb06 ca3b
00000220: 6255 abbd e386 69bd 0091 523c bd90 19bd
00000230: 0557 99bc e7a5 a7bd b1cf 1cbd 6d05 5fbd
00000240: 807c 4e3e d7a1 d03c e05f 32bc eb46 5fbe
00000250: dc7b 01bd 0052 95bd 76ef cebd 2616 803c
00000260: d585 6d3c 74e5 c13c 29f3 acbd 1ab1 363d
00000270: 50f4 173e dd9b 153e f1c3 b73d f9b1 64bd
00000280: 4cd6 a1bc 8766 253d 9b01 98bd 1613 0bbe
00000290: 0536 963c 8614 11bc 6895 0a3d e439 21bd
000002a0: 635d 363e 300b b9bd 1a90 fd3d e2c3 803d
000002b0: ae30 5bbd 6015 bd3c e738 04be 822b 67bd
000002c0: 86c7 67bd 4e85 0f3d c2f2 f93c bcff 063e
000002d0: 33a7 70be f55f babd c00a 0fbd e579 78bd
000002e0: 8eec c33c 1c88 3e3d 866b 52bd c49a 1b3c
000002f0: 1eb3 fa3d 42a5 433c 870c fa3b d0a3 c03d
00000300: 081d 8ebd 9cb9 053e 5650 013d df3e ff3d
00000310: af8a d33d df80 343e 800b a23c ed3b 283e
00000320: 4924 353d 8261 4f3e 9135 09be 3831 51be
00000330: bdf0 87bd 4f01 84bc 7158 223e 2f2e a63d
00000340: 0018 423e 8e98 4bbc 8c2a acbd bde9 7fbd
00000350: 1604 fc3b e31d 073e 4469 4cbd c00d b7bd
00000360: 95be bb3c eb7c 53bc 4bb8 1e3e 4d44 04bd
00000370: 6dfb 51be a9ed 883d 9c14 b73c 881d 62bd
00000380: 6483 853d 205a 783c 00a2 2e3d 09c8 3f3d
00000390: f813 b13d f8fd 9d3d 71e3 123e 5932 1c3c
000003a0: 7f12 0b3d 7e5f 333d 2af4 97bd b181 153d
000003b0: 152c 943d c9f9 d03d ec1b 0a3e 59d2 31bd
000003c0: 4a61 d4bd 2963 933d abfe e93d 62d3 c13d
000003d0: 4a5f e13d db50 0d3d d95a 29be 84f0 013e
000003e0: 4852 3a3e 490b 5abd bc16 bb3c 5d5e 96ba
000003f0: b9db 2fbe 0927 bfbd e175 263e 31c5 d13d
-0.085909866 -0.17867903 0.212167 0.028698817 -0.029269895 0.07544247 -0.023994828 0.08362089
-0.048636664 0.07932092 0.058906112 0.09288298 0.021606915 -0.24772666 -0.022740528 -0.06061472
0.06320966 -0.14581649 -0.046447586 0.08587511 -0.024183366 -0.07538159 -0.2544253 -0.11845121
-0.29566684 0.059900012 0.079531245 -0.100883305 -0.0056397663 0.07886631 -0.055747233 -0.100699395
0.101257384 0.010841531 -0.048005786 -0.03135642 0.09586563 0.003257688 0.095882 -0.05519095
0.027650107 0.22013079 -0.106761895 0.021872519 -0.056859665 0.020548908 0.09610592 0.11089128
0.046419706 0.07336887 0.024455993 -0.11735281 0.0075835064 -0.16821267 0.085775405 -0.0205822
0.035783786 0.04692471 -0.15346162 -0.019003127 0.12122471 0.19786468 0.04748934 0.1637469
0.004174032 -0.031226514 0.22435011 0.037685152 -0.0788805 0.10207142 0.13563433 0.047062684
-0.119735815 0.29102573 -0.1184827 0.058724813 0.03722193 -0.07977977 -0.07595715 -0.16862689
0.032626674 0.018621191 -0.19257668 -0.0937381 0.14644526 -0.027459245 -0.095535904 0.07041925
-0.15384671 0.07930816 0.08130624 0.053007428 -0.090952314 0.010531661 0.100899145 0.046355378
0.11191665 0.079179645 0.12880021 -0.0118298875 -0.026182264 0.056719873 0.0377343 -0.10711087
-0.0038816333 0.01991027 0.22414462 -0.13497612 -0.02241808 0.12331683 -0.061678167 0.030727956
-0.09481114 -0.019327138 0.11824813 0.08074262 -0.059195332 0.019888844 -0.010881115 0.17212737
0.040757086 0.013642778 0.05816578 -0.089565 0.116837196 0.25992727 -0.16328345 0.069844775
-0.015454322 0.22237414 0.043474887 0.10189739 0.046435535 -0.026613552 0.04950268 0.0061653606
-0.08365895 -0.057013404 0.0128519535 -0.03749155 -0.018718252 -0.0818594 -0.038284007 -0.054448534
0.2016468 0.025467796 -0.010887116 -0.21804397 -0.031612262 -0.07291031 -0.10104267 0.015635561
0.01449724 0.023668982 -0.084448166 0.04460249 0.14839292 0.14610238 0.0897292 -0.05583379
-0.019755505 0.04038098 -0.07422181 -0.135815 0.018336305 -0.008854991 0.03383389 -0.03936185
0.17809062 -0.09035337 0.12381001 0.06287362 -0.05351322 0.023081481 -0.12912332 -0.056437977
-0.056586765 0.03503924 0.030511264 0.13183492 -0.23501281 -0.091003336 -0.03492236 -0.060663123
0.023916509 0.046516523 -0.051372074 0.009497348 0.12241195 0.011941256 0.007630888 0.09406245
-0.06939131 0.13059086 0.031570755 0.124631636 0.10329186 0.17627285 0.019780874 0.1642911
0.044224057 0.2025204 -0.1339934 -0.20428932 -0.06637714 -0.016113905 0.1585405 0.081142776
0.18954468 -0.012426509 -0.08406553 -0.06247877 0.007690917 0.13194995 -0.049905077 -0.089381695
0.022918025 -0.012908201 0.1549999 -0.0322917 -0.20506068 0.06685955 0.022348695 -0.055203944
0.065192014 0.015158206 0.042634964 0.046821628 0.08646387 0.07714456 0.14344575 0.009533488
0.033953186 0.04379224 -0.074196175 0.036500636 0.072349705 0.10203893 0.13487214 -0.043413494
-0.10370119 0.07196648 0.11425527 0.09464146 0.11004503 0.034500938 -0.16538562 0.12689406
0.1819545 -0.05323342 0.022837989 -0.0011472214 -0.17173661 -0.09333617 0.16255905 0.102426894

actor.2.bias f4 [256]
00000000: 0860 0fbc 9cf2 46bc f5be 1ebd a18f 54bc
00000010: 91e1 7bbd 913d 373d de5e 86bc 9606 ae3c
00000020: 4c07 b1bb b903 0d3d 0c44 02b8 e971 f2bc
00000030: 0226 373c cd4e ac3c 33ed 023b bc92 5d3c
00000040: 23b3 503c 7649 983a 0ff4 843c 5c93 dabc
00000050: 3712 683c 688d 5d3d d419 ef3b 9a98 f03c
00000060: 1910 8abc 7da8 4bbd 267d e73c 9107 9bbc
00000070: bb84 9ebc 9dd3 b63c d955 e03c 699d 143c
00000080: a6d5 0b3c 6933 853c 62fe f23b 58f4 a4bc
00000090: feea 453c 54aa 013d fc40 453c 5ff8 863c
000000a0: cf16 d53c 94b0 27bd e5c5 bfbb bb42 a23c
000000b0: 68f6 783c 053f 433d 704e 883c 5973 8fbc
000000c0: 89dc 56bc 92ba b6bc 4321 143d 190f 4f3c
000000d0: 2f30 993c c2d3 0d3d d5ce 09bd 39fd 1c3d
000000e0: f4df 013d fed2 3c3d f29e 4dbd 66ab 8a3c
000000f0: b3fe bfbc 323d 46bc 97af 4a3c 4fe5 963c
00000100: 0c60 c53c a8a9 253d d10f ad3b cb7e a4bb
00000110: 54e6 b33c d684 ba3c a516 aa3c 8ed3 b9bb
00000120: 5ad9 5d3c 8e98 babc a697 9d3c 1cd3 443c
00000130: 1ff4 d83c 7a4d c13b 4763 a33a a473 823c
00000140: 9b01 d53b 9a10 f43b e57f 8d3c a129 843c
00000150: f737 8b3b 4631 373c a6b8 cb3c 61be fb3c
00000160: e907 253c e879 5ebc 6ec9 04bd 2f56 b7bb
00000170: da75 033d ca32 dd3c 5398 363c d05a 80b9
00000180: 0db0 9ebc 985c 2e3d e6e2 28bd 9626 f1bc
00000190: 86df 17bd c217 31bd 56e2 72bd 9762 d8bb
000001a0: c6f3 023b df11 e33c e0cc 983c c28a aa3c
000001b0: ec02 a6bc beb9 ae3c 7ed5 263c 7007 a13c
000001c0: 8494 87bb 6a0a 3239 dd4e bf3c ec7d 3fbc
000001d0: c15b 27bc 9b63 cf3c ed18 9cbc 70c8 ff3c
000001e0: 0fed 21bc aa52 ecbc 8265 0b3c e223 f9bc
000001f0: 57cf f93b 1d36 013d 4f2d 9ebb e3dc 0dbd
00000200: 85ce db3c d2c5 24bd 8974 883c d7fb 993c
00000210: 1635 183c f52d 6ebc fe49 0bba 6883 fa3a
00000220: 9da1 07bc e79f bebb 4aeb ab3c 52bb dcbb
00000230: 0171 843c 4751 cfbc e917 613c d49e ea38
00000240: 4bd3 22bc bf1d 833c 8021 283d d2c3 5f3c
00000250: 6339 023d ee56 523c 0fd0 073c be38 003d
00000260: 5f0e ef3c 9845 013d 6323 9bba 0491 d93a
00000270: 22c0 8c3b 40c9 65bc 1df9 bcb9 ef3e 103d
00000280: b6da 9a3b 65d4 65bb ad21 b03c cec6 553c
00000290: 5035 cb3b e39a cd3c 7e08 e53c 2c8d 85bc
000002a0: 938d 6e3c 9c04 b8bc 6976 923c 6115 033d
000002b0: aceb 19bc fee7 0f3d d78b 1d3c 26b1 da3b
000002c0: d566 73bb 5c40 143c 11e3 973c b11e 983c
000002d0: 2b35 a7bc 6b12 223d 429f 263d 1ac0 5f3c
000002e0: 5ceb 5f3c 2f8c 1b3d 8c7f d93c 2498 993c
000002f0: 25f0 8ebc d715 d63c f00f 1f3d a0fa e73c
00000300: 88ad a6bc 61c6 1bbc 5502 71bc eda0 a63c
00000310: 2860 e63c e6d6 263c 8fdd 74bc be68 e4bb
00000320: c618 da3c 4855 bb3a dd49 f4b9 714c 283d
00000330: 2c3d 87bc dd68 bc3c e03a 013c 8943 febc
00000340: 4801 753b ba76 9d3c 3472 49bd 1625 0839
00000350: 35ee a43c 5501 a73c fc51 d33c 5ad2 883c
00000360: b968 9d3c b1bc b9bc a7d6 14bc 4c16 4fbd
00000370: b033 0d3c a5fe 223c 21ad 47bc c2a0 2ebd
00000380: a3d6 27bb d35f 33bc d4fc de3b 752c 863c
00000390: 01e4 45bc 2e56 9dbc 081e 43bb 7883 64bd
000003a0: f615 50bb e88a 7b3c 75e3 1b3c 5418 df3c
000003b0: db4f f03c af9b 3fbd 42d3 babb 8bf4 1abd
000003c0: 2181 3b3c 5488 a13c c932 d5bc bb44 99bb
000003d0: 6a0b 05ba a490 523c 0c25 833b 3608 81bc
000003e0: e9b0 d1bc 0c9e b0bc 2070 8e3c b796 5bbd
000003f0: caa0 bebb 9419 873b ca0f 023d d353 27bc
-0.008750923 -0.0121428035 -0.03875633 -0.012973697 -0.061494414 0.04473645 -0.016402658 0.021243375
-0.005402481 0.03442738 -3.105779e-05 -0.029595332 0.011178495 0.021033669 0.0019977808 0.013523754
0.012738022 0.0011618573 0.016229657 -0.026681595 0.014164499 0.054089934 0.00729678 0.029369641
-0.01685338 -0.04972123 0.028257918 -0.018924506 -0.0193504 0.022317702 0.027384685 0.009070733
0.0085348245 0.016259866 0.0074155787 -0.020136043 0.012079952 0.03165658 0.012039419 0.016475854
0.026011853 -0.040939882 -0.0058524483 0.01980721 0.015195467 0.047667522 0.016638964 -0.017511057
-0.013114103 -0.02230576 0.036164533 0.012637877 0.018699734 0.034625776 -0.033644516 0.03832743
0.03170772 0.046099655 -0.05020041 0.016927432 -0.02343688 -0.012099551 0.012370965 0.01841989
0.02409365 0.040445 0.0052814265 -0.0050199977 0.021960415 0.02276842 0.02076275 -0.0056709712
0.01354059 -0.022777822 0.01923735 0.012013223 0.026483594 0.0058991285 0.00124655 0.015924282
0.0065004355 0.007448268 0.017272899 0.016133131 0.004248615 0.011181181 0.02486832 0.030730428
0.010072687 -0.013578869 -0.03241866 -0.0055949907 0.032094814 0.027001757 0.011144715 -0.00024481723
-0.019371057 0.042568773 -0.041232012 -0.029437345 -0.037078403 -0.043235548 -0.059297882 -0.0066035497
0.0019981726 0.027718483 0.01865238 0.020818118 -0.020265065 0.021328803 0.010182736 0.019656867
-0.0041375775 0.00016979282 0.023353035 -0.011687737 -0.010214747 0.02531605 -0.019054854 0.031223506
-0.009883179 -0.028848011 0.008508088 -0.030412618 0.007623594 0.031545747 -0.0048271785 -0.034634482
0.026831875 -0.04022772 0.01665713 0.018796844 0.00929 -0.014537324 -0.0005313455 0.0019112648
-0.008278278 -0.0058174017 0.020986218 -0.0067361975 0.016167166 -0.02530731 0.013738611 0.000111875735
-0.0099380715 0.016005395 0.041047573 0.013657527 0.03179301 0.012838108 0.008289351 0.031304114
0.029181657 0.03156051 -0.0011836108 0.0016599004 0.004295365 -0.0140250325 -0.00036043758 0.03521627
0.0047257794 -0.0035069224 0.021500433 0.013047887 0.0062014237 0.02509827 0.027958151 -0.016302668
0.014560121 -0.022463135 0.017878728 0.03200281 -0.009394567 0.035133354 0.00961586 0.00667395
-0.003714015 0.009048548 0.01854089 0.018569322 -0.020411095 0.039568346 0.040679224 0.01365664
0.013666954 0.037975486 0.026550077 0.018749304 -0.017448494 0.02613346 0.03883356 0.02831775
-0.020346418 -0.009507746 -0.014710029 0.020340407 0.028122023 0.010183072 -0.014945402 -0.006970494
0.026623141 0.0014292384 -0.0004659434 0.041088525 -0.016508661 0.022999221 0.007887572 -0.031038063
0.0037384797 0.019221652 -0.04918118 0.00012983786 0.020133117 0.020386377 0.02579593 0.016701866
0.019214975 -0.022672983 -0.00908438 -0.050558373 0.00861828 0.009948407 -0.012187273 -0.04263378
-0.0025610111 -0.010948139 0.006805042 0.01637862 -0.012078286 -0.019206133 -0.0029772539 -0.05578944
-0.003175137 0.015352942 0.009514679 0.02723328 0.029334953 -0.04677933 -0.0057014534 -0.03783087
0.011444361 0.019718327 -0.026025193 -0.0046773828 -0.0005075248 0.012851868 0.004002219 -0.015750986
-0.025597053 -0.021559738 0.01738745 -0.05361053 -0.0058175074 0.004122922 0.03175334 -0.010212856

actor.4.weight f4 [4, 256]
00000000: 5e2e 753c 64bd a7bc 9645 2c3d 0e01 0f3d
00000010: b37e 303d cae4 0fbd 26df 5db9 8a4f 1c3c
00000020: a5d1 a73c 7ac1 72bd 1388 bd3c abd0 a8bb
00000030: 8516 43bc 0cbf 343c 7e60 d6bc 2425 39bc
00000040: 4541 fc3b 65ce 433e def0 5b3e c093 1bbc
00000050: adb7 063d f20f d5bd b4eb debc 7f1c 71bd
00000060: 4ae8 dc3a 24cb db3c 6f7c 33bc 24c5 203e
00000070: a4bb 54bc bd88 343d 9257 93bc 3d25 efbc
00000080: 9e93 75bd ad68 043d ce83 8f3d ec9a ea3c
00000090: 8124 dfbc aeb4 1cbc 4269 dcbc e76c c33c
000000a0: ece3 9b3c f92a 483b 9bdb 1e3c 23eb a23c
000000b0: c37d 6e3c 112d 623d 9d50 213e 2301 3dbd
000000c0: 0568 fb3c 6152 bc3a 2ab2 073e 0c14 7e3d
000000d0: bf9f d03c f5ec 543d ac1a e73b f8c2 e03b
000000e0: 7f89 b1bc edd9 593e d62a 9e3c 6cb2 c5bb
000000f0: 1b84 443c 81b9 0e3c 9090 0e3c 7104 7bbc
00000100: 642a 71bc 0dce f33c a58e 323d 6bd3 1dbd
00000110: 9f53 c93c cc55 9f3d 6bee 013d e6c0 8a3c
00000120: 44b7 e3bb 3ec8 643d 0926 2b3c 159c ea3c
00000130: 6169 303c 1b13 fdbc df27 0bbc 9046 b6bc
00000140: 06a9 703c 3166 c33b 0baa 663c b241 3a3b
00000150: a6dd 5e3c 0d86 1fb9 073a 8c3c 9dda 253d
00000160: b98e e7bb 6a37 64bb f9cd 9e39 a308 a03c
00000170: b829 2cbd 9587 ebba c111 65bb dcb2 f8bb
00000180: 10f4 703d 5240 3bbc 844c cebd d39e e5bb
00000190: d0c8 163d ddae 033b e352 0bbe dbb0 6cbc
000001a0: c4f5 813c 8c06 333d 11f4 8abb 1fe4 843c
000001b0: 4448 74bb 0044 73b9 a871 45bd 91df ad3c
000001c0: 2650 083d 1a71 1c3b 631b 44bd cddc f4bb
000001d0: 5590 043b 0a54 e4bb 1db3 263c c764 14bb
000001e0: e94e 8bbc 5171 a6bc b4cf 343c ac1a 763d
000001f0: c2f4 803b b004 103d 22bc 32bc d0a6 22be
00000200: 06ad 18bd 002c abbc 4d3e 983a 7395 743d
00000210: df6c b03c a1cb 80bd 776d 3d3d b288 c8bc
00000220: 236d b93d 2663 acbc adf9 41bd 43de d73b
00000230: d775 b3bd a325 d73c 3ed7 8d3b b39f 13bd
00000240: ef14 9a3c e08e 313d f87e fc3c 5175 ef3c
00000250: 783e 3d3d 12fb 223e a2fb ecbc 154c 77bd
00000260: 3eaa 003b 26b6 cdbc 6e40 dd3c f9ba 4fbd
00000270: 17e4 c33a 33c6 693c 8cc3 b5bc 856d 93bd
00000280: d370 2abd cd92 403d 413d 603d 441c 473c
00000290: 086b 4d3d 7c8e 2c3d 5171 793e f279 a53c
000002a0: a54f 8a3b ad9c edbb 0dca 3c3c ed69 32bd
000002b0: 41ff fd3b ca92 04be bfc5 cb3c 5f5e 463d
000002c0: a4df d5bb ad89 00bd c620 cfbb 78a4 9a3c
000002d0: 5c7a ab3d 7e7f 0cbc ac1b 763a 5dfb 8cbd
000002e0: d818 9f3c 0527 5abd 6747 f93c 5d0f b2bc
000002f0: f097 423e c9e9 a13d 57ab 553c b811 083e
00000300: 4747 54be 73ce b2bc 392d 873c dec8 26bc
00000310: d14d b23b b1ec 3abd 6f2c 83bb 22a8 693d
00000320: 3d96 4fbd 5104 d33b c198 7a3c 9752 db3d
00000330: fd41 9ebd 7718 093c 0872 2f3d 23e7 913c
00000340: e499 fd3c 2064 063e 4549 f53c f19e 733d
00000350: 30f5 33bc 9a41 023d 8b5d d93d d3d4 f0bc
00000360: 0146 433d 9f1c 20bb da2d 883c 150c 3a3d
00000370: 95c5 2abd c77c adbc 6ed6 863b 52f5 ab3d
00000380: 3d0c ebbc 8eb6 f8bd 2b57 5abc 63f6 34bd
00000390: 5dd0 8dbb ad69 d53c e61a 653c 9606 ad3d
000003a0: d123 5c3d c634 113c e856 a63c 9a18 50bb
000003b0: adab 86bd e9ae 4d3d c8db bc3a 8397 933d
000003c0: bac3 8a3b caba 0f3d e5d3 14be 4d58 e53c
000003d0: e832 46bc 32eb 133d 6ce2 aebc 6602 073e
000003e0: 846f 593d 20f0 473b 3982 51bc 8d22 b5bc
000003f0: 237f 07bc 14e6 ef3c 6b4d 87bb c82e 2fbc
0.014964668 -0.02047605 0.04205855 0.034913115 0.04308958 -0.0351303 -0.00021159332 0.009540448
0.020485708 -0.059266545 0.023136174 -0.0051518283 -0.011907225 0.011031877 -0.026169058 -0.011300359
0.0076982104 0.19121702 0.21478602 -0.009495676 0.03289001 -0.10403432 -0.027212001 -0.058865067
0.0016853896 0.026830263 -0.01095496 0.15700203 -0.01298419 0.044075716 -0.017986093 -0.029192561
-0.05995523 0.03232639 0.070075616 0.028638326 -0.027239086 -0.009564562 -0.02690566 0.02385564
0.01902958 0.0030543192 0.009695913 0.019887513 0.014556351 0.05521876 0.15753408 -0.046143662
0.030689249 0.0014367813 0.13251558 0.062030837 0.025466798 0.051983792 0.00705274 0.0068591796
-0.021672009 0.21274538 0.019307535 -0.0060332324 0.011994387 0.00871122 0.008701459 -0.015320883
-0.014719579 0.029761339 0.043593068 -0.038531702 0.024576006 0.07780036 0.031721514 0.016937684
-0.006949337 0.05585503 0.01044608 0.028638879 0.010767312 -0.0308929 -0.008493393 -0.022250444
0.014688736 0.00596311 0.014078627 0.0028420505 0.01360265 -0.0001521336 0.017117513 0.04049169
-0.0070665744 -0.0034823068 0.0003028957 0.019535368 -0.042031974 -0.0017969484 -0.003495321 -0.007589681
0.058826506 -0.011428909 -0.10073188 -0.0070074587 0.036812603 0.002009324 -0.13605838 -0.0144464625
0.01586426 0.043707415 -0.0042405208 0.016222058 -0.003727452 -0.00023199618 -0.048204094 0.021224769
0.03327956 0.0023871125 -0.04787768 -0.0074726106 0.002022763 -0.006968026 0.01017454 -0.0022643076
-0.0170054 -0.020317705 0.011035848 0.06008403 0.0039354274 0.03516072 -0.010909112 -0.15883946
-0.037274383 -0.020895004 0.0011615247 0.05971284 0.021536289 -0.06288839 0.046246972 -0.024479244
0.09054019 -0.021043371 -0.04735725 0.006587775 -0.087627105 0.026263064 0.0043286374 -0.036040973
0.01880881 0.043349147 0.030822262 0.029230746 0.046202153 0.15916088 -0.028928582 -0.06037529
0.0019632722 -0.02511127 0.027008262 -0.05071542 0.0014945295 0.014268446 -0.02218797 -0.071986236
-0.041611504 0.047015 0.054745916 0.012152735 0.0501509 0.04212807 0.24359633 0.02019975
0.00422092 -0.007251343 0.011522782 -0.04355805 0.007751376 -0.1294662 0.024874566 0.048429843
-0.006526904 -0.031381298 -0.0063210456 0.018877253 0.083729476 -0.008575318 0.00093882787 -0.06883881
0.019421026 -0.05325987 0.030429555 -0.021735841 0.19003272 0.07905919 0.013041339 0.13288009
-0.20730315 -0.021826958 0.016501056 -0.010179726 0.0054414053 -0.045635883 -0.0040030996 0.05704511
-0.050680388 0.0064397235 0.015295208 0.10709112 -0.0772743 0.008367649 0.042833358 0.01781041
0.03095717 0.13124132 0.029942164 0.05947775 -0.01098375 0.031800844 0.10613545 -0.029398357
0.047674183 -0.0024431122 0.016623426 0.04542168 -0.041692335 -0.021177663 0.0041149175 0.083964005
-0.02869236 -0.121441945 -0.0133264465 -0.044180285 -0.0043278174 0.026051367 0.013983464 0.08448522
0.053745095 0.00886268 0.020305112 -0.0031752945 -0.06575713 0.050215635 0.0014408762 0.07206633
0.004234758 0.035090245 -0.14533956 0.027996207 -0.012097098 0.03611297 -0.0213482 0.13184509
0.053084865 0.0030508116 -0.012787395 -0.022111202 -0.008270058 0.029284514 -0.004129102 -0.010692306

actor.4.bias f4 [4]
00000000: af25 cbbb 87ba 6d3c 280f 83bb dcc9 023a
-0.0061995606 0.014509804 -0.0039996095 0.0004989186
